…
item_id  0 ~ 1649  [num:  80000  (unique:  1650 )]
SET ITEM PADDING...
user_id  0 ~ 942  [num:  80000  (unique:  943 )]
item_id  1 ~ 1650  [num:  80000  (unique:  1651 )]
READ INPUT FILE  datasets/mlmil/test_over1.csv ...
user_id  0 ~ 942  [num:  19964  (unique:  943 )]
item_id  1 ~ 1644  [num:  19964  (unique:  1650 )]
Namespace(L=5, T=3, ac_conv='relu', ac_fc='relu', batch_size=512, d=50, drop=0.5, l2=1e-06, learning_rate=0.001, n_iter=50, neg_samples=3, nh=16, nv=0, seed=1234, test_root='datasets/mlmil/test_over1.csv', train_root='datasets/mlmil/train_over1.csv', use_cuda=True)
total training instances: 73402
Caser(
  (user_embeddings): Embedding(943, 50)
  (item_embeddings): Embedding(1651, 50)
  (conv_h): ModuleList(
    (0): Conv2d(1, 16, kernel_size=(1, 50), stride=(1, 1))
    (1): Conv2d(1, 16, kernel_size=(2, 50), stride=(1, 1))
    (2): Conv2d(1, 16, kernel_size=(3, 50), stride=(1, 1))
    (3): Conv2d(1, 16, kernel_size=(4, 50), stride=(1, 1))
    (4): Conv2d(1, 16, kernel_size=(5, 50), stride=(1, 1))
  )
  (fc1): Linear(in_features=80, out_features=50, bias=True)
  (W2): Embedding(1651, 100)
  (b2): Embedding(1651, 1)
  (dropout): Dropout(p=0.5)
)
Epoch 1 [8.9 s]	loss=1.0894, map=0.1302, prec@1=0.2923, prec@5=0.2011, prec@10=0.1749, recall@1=0.0183, recall@5=0.0589, recall@10=0.1011, [4.1 s]
Epoch 2 [8.7 s]	loss=0.9249, map=0.1762, prec@1=0.3657, prec@5=0.2731, prec@10=0.2306, recall@1=0.0242, recall@5=0.0930, recall@10=0.1439, [4.2 s]
Epoch 3 [8.7 s]	loss=0.8341, map=0.2090, prec@1=0.3905, prec@5=0.3046, prec@10=0.2545, recall@1=0.0316, recall@5=0.1090, recall@10=0.1659, [4.0 s]
…
