…
<class 'numpy.ndarray'> 943 <class 'numpy.ndarray'> 943 <class 'numpy.ndarray'> 943
READ INPUT FILE  datasets/mlmil/test_over1.csv ...
user_id  0 ~ 942  [num:  19964  (unique:  943 )]
item_id  1 ~ 1644  [num:  19964  (unique:  1650 )]
rate_id  0 ~ 4  [num:  19964  (unique:  5 )]
Namespace(L=5, T=3, ac_conv='relu', ac_fc='relu', batch_size=512, d=100, drop=0.5, l2=1e-06, learning_rate=0.001, n_iter=1, neg_samples=3, nh=16, nv=4, seed=1234, test_root='datasets/mlmil/test_over1.csv', train_root='datasets/mlmil/train_over1.csv', use_cuda=True)
<class 'numpy.ndarray'> 73402 <class 'numpy.ndarray'> 73402
total training instances: 73402
Caser(
  (user_embeddings): Embedding(943, 100)
  (item_embeddings): Embedding(1651, 100)
  (rate_embeddings): Embedding(5, 100)
  (conv_v): Conv2d(1, 4, kernel_size=(5, 1), stride=(1, 1))
  (conv_h): ModuleList(
    (0): Conv2d(1, 16, kernel_size=(1, 100), stride=(1, 1))
    (1): Conv2d(1, 16, kernel_size=(2, 100), stride=(1, 1))
    (2): Conv2d(1, 16, kernel_size=(3, 100), stride=(1, 1))
    (3): Conv2d(1, 16, kernel_size=(4, 100), stride=(1, 1))
    (4): Conv2d(1, 16, kernel_size=(5, 100), stride=(1, 1))
  )
  (fc1): Linear(in_features=480, out_features=100, bias=True)
  (W2): Embedding(1651, 200)
  (b2): Embedding(1651, 1)
  (dropout): Dropout(p=0.5)
)
tensor([[ 1.9671,  0.3389,  0.1502,  ..., -1.3923,  0.2921, -2.5555],
        [-0.8559, -0.7742, -1.6393,  ...,  0.2782,  0.5159,  1.1066],
        [-0.8559, -0.7742, -1.6393,  ...,  0.2782,  0.5159,  1.1066],
        ...,
        [ 1.9671,  0.3389,  0.1502,  ..., -1.3923,  0.2921, -2.5555],
        [-0.8559, -0.7742, -1.6393,  ...,  0.2782,  0.5159,  1.1066],
…
