…
item_id  0 ~ 1649  [num:  80000  (unique:  1650 )]
SET ITEM PADDING...
user_id  0 ~ 942  [num:  80000  (unique:  943 )]
item_id  1 ~ 1650  [num:  80000  (unique:  1651 )]
READ INPUT FILE  datasets/mlmil/test_over1.csv ...
user_id  0 ~ 942  [num:  19964  (unique:  943 )]
item_id  1 ~ 1644  [num:  19964  (unique:  1650 )]
Namespace(L=5, T=3, ac_conv='relu', ac_fc='relu', batch_size=512, d=100, drop=0.5, l2=1e-06, learning_rate=0.001, n_iter=1, neg_samples=3, nh=16, nv=4, seed=1234, test_root='datasets/mlmil/test_over1.csv', train_root='datasets/mlmil/train_over1.csv', use_cuda=True)
total training instances: 73402
Caser(
  (user_embeddings): Embedding(943, 100)
  (item_embeddings): Embedding(1651, 100)
  (conv_v): Conv2d(1, 4, kernel_size=(5, 1), stride=(1, 1))
  (conv_h): ModuleList(
    (0): Conv2d(1, 16, kernel_size=(1, 100), stride=(1, 1))
    (1): Conv2d(1, 16, kernel_size=(2, 100), stride=(1, 1))
    (2): Conv2d(1, 16, kernel_size=(3, 100), stride=(1, 1))
    (3): Conv2d(1, 16, kernel_size=(4, 100), stride=(1, 1))
    (4): Conv2d(1, 16, kernel_size=(5, 100), stride=(1, 1))
  )
  (fc1): Linear(in_features=480, out_features=100, bias=True)
  (W2): Embedding(1651, 200)
  (b2): Embedding(1651, 1)
  (dropout): Dropout(p=0.5)
)
Epoch 1 [29.0 s]	loss=1.0097, map=0.1433, prec@1=0.3031, prec@5=0.2173, prec@10=0.1886, recall@1=0.0206, recall@5=0.0649, recall@10=0.1128, [4.3 s]
